…
[38;5;15mtrain[39m[38;5;197m.[39m[38;5;15moutput_dir[39m[38;5;15m [39m[38;5;197m=[39m[38;5;15m [39m[38;5;186m"[39m[38;5;186moutput_newmapper_wd_0.0001_lr_2e-4/mimdet_vit_base_mask_rcnn_fpn_sr_0p5_800_1333_4xdec_lvis_3x[39m[38;5;186m"[39m
[38;5;15mtrain[39m[38;5;197m.[39m[38;5;15mamp[39m[38;5;197m.[39m[38;5;15menabled[39m[38;5;15m [39m[38;5;197m=[39m[38;5;15m [39m[38;5;81mTrue[39m

[07/07 17:08:58] detectron2.utils.env INFO: Using a generated random seed 59084493
[07/07 17:09:28] detectron2 INFO: Model:
GeneralizedRCNNImageListForward(
  (backbone): FPN(
    (fpn_lateral2): Conv2d(
      192, 256, kernel_size=(1, 1), stride=(1, 1), bias=False
      (norm): SyncBatchNorm(256, eps=1e-05, momentum=0.1, affine=True, track_running_stats=True)
    )
    (fpn_output2): Conv2d(
      256, 256, kernel_size=(3, 3), stride=(1, 1), padding=(1, 1), bias=False
      (norm): SyncBatchNorm(256, eps=1e-05, momentum=0.1, affine=True, track_running_stats=True)
    )
    (fpn_lateral3): Conv2d(
      384, 256, kernel_size=(1, 1), stride=(1, 1), bias=False
      (norm): SyncBatchNorm(256, eps=1e-05, momentum=0.1, affine=True, track_running_stats=True)
    )
    (fpn_output3): Conv2d(
      256, 256, kernel_size=(3, 3), stride=(1, 1), padding=(1, 1), bias=False
      (norm): SyncBatchNorm(256, eps=1e-05, momentum=0.1, affine=True, track_running_stats=True)
    )
    (fpn_lateral4): Conv2d(
      512, 256, kernel_size=(1, 1), stride=(1, 1), bias=False
      (norm): SyncBatchNorm(256, eps=1e-05, momentum=0.1, affine=True, track_running_stats=True)
    )
    (fpn_output4): Conv2d(
      256, 256, kernel_size=(3, 3), stride=(1, 1), padding=(1, 1), bias=False
      (norm): SyncBatchNorm(256, eps=1e-05, momentum=0.1, affine=True, track_running_stats=True)
    )
    (fpn_lateral5): Conv2d(
      512, 256, kernel_size=(1, 1), stride=(1, 1), bias=False
      (norm): SyncBatchNorm(256, eps=1e-05, momentum=0.1, affine=True, track_running_stats=True)
    )
    (fpn_output5): Conv2d(
      256, 256, kernel_size=(3, 3), stride=(1, 1), padding=(1, 1), bias=False
      (norm): SyncBatchNorm(256, eps=1e-05, momentum=0.1, affine=True, track_running_stats=True)
    )
    (top_block): LastLevelMaxPool()
    (bottom_up): MIMDetBackbone(
      (encoder): MIMDetEncoder(
        (patch_embed): ConvStem(
          (proj): ModuleList(
            (0): Sequential(
              (0): Conv2d(3, 96, kernel_size=(3, 3), stride=(2, 2), padding=(1, 1), bias=False)
              (1): GroupNorm(1, 96, eps=1e-06, affine=True)
              (2): GELU()
            )
            (1): Sequential(
              (0): Conv2d(96, 192, kernel_size=(3, 3), stride=(2, 2), padding=(1, 1), bias=False)
              (1): GroupNorm(1, 192, eps=1e-06, affine=True)
              (2): GELU()
            )
            (2): Sequential(
              (0): Conv2d(192, 384, kernel_size=(3, 3), stride=(2, 2), padding=(1, 1), bias=False)
              (1): GroupNorm(1, 384, eps=1e-06, affine=True)
              (2): GELU()
            )
            (3): Sequential(
              (0): Conv2d(384, 768, kernel_size=(3, 3), stride=(2, 2), padding=(1, 1), bias=False)
              (1): GroupNorm(1, 768, eps=1e-06, affine=True)
              (2): GELU()
              (3): Conv2d(768, 768, kernel_size=(1, 1), stride=(1, 1))
            )
          )
          (norm): Identity()
        )
        (blocks): ModuleList(
          (0): Block(
            (norm1): LayerNorm((768,), eps=1e-05, elementwise_affine=True)
            (attn): Attention(
              (qkv): Linear(in_features=768, out_features=2304, bias=True)
              (attn_drop): Dropout(p=0.0, inplace=False)
              (proj): Linear(in_features=768, out_features=768, bias=True)
              (proj_drop): Dropout(p=0.0, inplace=False)
            )
            (drop_path): Identity()
            (norm2): LayerNorm((768,), eps=1e-05, elementwise_affine=True)
            (mlp): Mlp(
              (fc1): Linear(in_features=768, out_features=3072, bias=True)
              (act): GELU()
              (drop1): Dropout(p=0.0, inplace=False)
              (fc2): Linear(in_features=3072, out_features=768, bias=True)
              (drop2): Dropout(p=0.0, inplace=False)
            )
          )
          (1): Block(
            (norm1): LayerNorm((768,), eps=1e-05, elementwise_affine=True)
            (attn): Attention(
              (qkv): Linear(in_features=768, out_features=2304, bias=True)
              (attn_drop): Dropout(p=0.0, inplace=False)
              (proj): Linear(in_features=768, out_features=768, bias=True)
              (proj_drop): Dropout(p=0.0, inplace=False)
            )
            (drop_path): DropPath()
            (norm2): LayerNorm((768,), eps=1e-05, elementwise_affine=True)
            (mlp): Mlp(
              (fc1): Linear(in_features=768, out_features=3072, bias=True)
              (act): GELU()
              (drop1): Dropout(p=0.0, inplace=False)
              (fc2): Linear(in_features=3072, out_features=768, bias=True)
              (drop2): Dropout(p=0.0, inplace=False)
            )
          )
          (2): Block(
            (norm1): LayerNorm((768,), eps=1e-05, elementwise_affine=True)
            (attn): Attention(
              (qkv): Linear(in_features=768, out_features=2304, bias=True)
              (attn_drop): Dropout(p=0.0, inplace=False)
              (proj): Linear(in_features=768, out_features=768, bias=True)
              (proj_drop): Dropout(p=0.0, inplace=False)
            )
            (drop_path): DropPath()
            (norm2): LayerNorm((768,), eps=1e-05, elementwise_affine=True)
            (mlp): Mlp(
              (fc1): Linear(in_features=768, out_features=3072, bias=True)
              (act): GELU()
              (drop1): Dropout(p=0.0, inplace=False)
              (fc2): Linear(in_features=3072, out_features=768, bias=True)
              (drop2): Dropout(p=0.0, inplace=False)
            )
          )
          (3): Block(
            (norm1): LayerNorm((768,), eps=1e-05, elementwise_affine=True)
            (attn): Attention(
              (qkv): Linear(in_features=768, out_features=2304, bias=True)
              (attn_drop): Dropout(p=0.0, inplace=False)
              (proj): Linear(in_features=768, out_features=768, bias=True)
              (proj_drop): Dropout(p=0.0, inplace=False)
            )
            (drop_path): DropPath()
            (norm2): LayerNorm((768,), eps=1e-05, elementwise_affine=True)
            (mlp): Mlp(
              (fc1): Linear(in_features=768, out_features=3072, bias=True)
              (act): GELU()
              (drop1): Dropout(p=0.0, inplace=False)
              (fc2): Linear(in_features=3072, out_features=768, bias=True)
              (drop2): Dropout(p=0.0, inplace=False)
            )
          )
          (4): Block(
            (norm1): LayerNorm((768,), eps=1e-05, elementwise_affine=True)
            (attn): Attention(
              (qkv): Linear(in_features=768, out_features=2304, bias=True)
              (attn_drop): Dropout(p=0.0, inplace=False)
              (proj): Linear(in_features=768, out_features=768, bias=True)
              (proj_drop): Dropout(p=0.0, inplace=False)
            )
            (drop_path): DropPath()
            (norm2): LayerNorm((768,), eps=1e-05, elementwise_affine=True)
            (mlp): Mlp(
              (fc1): Linear(in_features=768, out_features=3072, bias=True)
              (act): GELU()
              (drop1): Dropout(p=0.0, inplace=False)
              (fc2): Linear(in_features=3072, out_features=768, bias=True)
              (drop2): Dropout(p=0.0, inplace=False)
            )
          )
          (5): Block(
            (norm1): LayerNorm((768,), eps=1e-05, elementwise_affine=True)
            (attn): Attention(
              (qkv): Linear(in_features=768, out_features=2304, bias=True)
              (attn_drop): Dropout(p=0.0, inplace=False)
              (proj): Linear(in_features=768, out_features=768, bias=True)
              (proj_drop): Dropout(p=0.0, inplace=False)
            )
            (drop_path): DropPath()
            (norm2): LayerNorm((768,), eps=1e-05, elementwise_affine=True)
            (mlp): Mlp(
              (fc1): Linear(in_features=768, out_features=3072, bias=True)
              (act): GELU()
              (drop1): Dropout(p=0.0, inplace=False)
              (fc2): Linear(in_features=3072, out_features=768, bias=True)
              (drop2): Dropout(p=0.0, inplace=False)
            )
          )
          (6): Block(
            (norm1): LayerNorm((768,), eps=1e-05, elementwise_affine=True)
            (attn): Attention(
              (qkv): Linear(in_features=768, out_features=2304, bias=True)
              (attn_drop): Dropout(p=0.0, inplace=False)
              (proj): Linear(in_features=768, out_features=768, bias=True)
              (proj_drop): Dropout(p=0.0, inplace=False)
            )
            (drop_path): DropPath()
            (norm2): LayerNorm((768,), eps=1e-05, elementwise_affine=True)
            (mlp): Mlp(
              (fc1): Linear(in_features=768, out_features=3072, bias=True)
              (act): GELU()
              (drop1): Dropout(p=0.0, inplace=False)
              (fc2): Linear(in_features=3072, out_features=768, bias=True)
              (drop2): Dropout(p=0.0, inplace=False)
            )
          )
          (7): Block(
            (norm1): LayerNorm((768,), eps=1e-05, elementwise_affine=True)
            (attn): Attention(
              (qkv): Linear(in_features=768, out_features=2304, bias=True)
              (attn_drop): Dropout(p=0.0, inplace=False)
              (proj): Linear(in_features=768, out_features=768, bias=True)
              (proj_drop): Dropout(p=0.0, inplace=False)
            )
            (drop_path): DropPath()
            (norm2): LayerNorm((768,), eps=1e-05, elementwise_affine=True)
            (mlp): Mlp(
              (fc1): Linear(in_features=768, out_features=3072, bias=True)
              (act): GELU()
              (drop1): Dropout(p=0.0, inplace=False)
              (fc2): Linear(in_features=3072, out_features=768, bias=True)
              (drop2): Dropout(p=0.0, inplace=False)
            )
          )
          (8): Block(
            (norm1): LayerNorm((768,), eps=1e-05, elementwise_affine=True)
            (attn): Attention(
              (qkv): Linear(in_features=768, out_features=2304, bias=True)
              (attn_drop): Dropout(p=0.0, inplace=False)
              (proj): Linear(in_features=768, out_features=768, bias=True)
              (proj_drop): Dropout(p=0.0, inplace=False)
            )
            (drop_path): DropPath()
            (norm2): LayerNorm((768,), eps=1e-05, elementwise_affine=True)
            (mlp): Mlp(
              (fc1): Linear(in_features=768, out_features=3072, bias=True)
              (act): GELU()
              (drop1): Dropout(p=0.0, inplace=False)
              (fc2): Linear(in_features=3072, out_features=768, bias=True)
              (drop2): Dropout(p=0.0, inplace=False)
            )
          )
          (9): Block(
            (norm1): LayerNorm((768,), eps=1e-05, elementwise_affine=True)
            (attn): Attention(
              (qkv): Linear(in_features=768, out_features=2304, bias=True)
              (attn_drop): Dropout(p=0.0, inplace=False)
              (proj): Linear(in_features=768, out_features=768, bias=True)
              (proj_drop): Dropout(p=0.0, inplace=False)
            )
            (drop_path): DropPath()
            (norm2): LayerNorm((768,), eps=1e-05, elementwise_affine=True)
            (mlp): Mlp(
              (fc1): Linear(in_features=768, out_features=3072, bias=True)
              (act): GELU()
              (drop1): Dropout(p=0.0, inplace=False)
              (fc2): Linear(in_features=3072, out_features=768, bias=True)
              (drop2): Dropout(p=0.0, inplace=False)
            )
          )
          (10): Block(
            (norm1): LayerNorm((768,), eps=1e-05, elementwise_affine=True)
            (attn): Attention(
              (qkv): Linear(in_features=768, out_features=2304, bias=True)
              (attn_drop): Dropout(p=0.0, inplace=False)
              (proj): Linear(in_features=768, out_features=768, bias=True)
              (proj_drop): Dropout(p=0.0, inplace=False)
            )
            (drop_path): DropPath()
            (norm2): LayerNorm((768,), eps=1e-05, elementwise_affine=True)
            (mlp): Mlp(
              (fc1): Linear(in_features=768, out_features=3072, bias=True)
              (act): GELU()
              (drop1): Dropout(p=0.0, inplace=False)
              (fc2): Linear(in_features=3072, out_features=768, bias=True)
              (drop2): Dropout(p=0.0, inplace=False)
            )
          )
          (11): Block(
            (norm1): LayerNorm((768,), eps=1e-05, elementwise_affine=True)
            (attn): Attention(
              (qkv): Linear(in_features=768, out_features=2304, bias=True)
              (attn_drop): Dropout(p=0.0, inplace=False)
              (proj): Linear(in_features=768, out_features=768, bias=True)
              (proj_drop): Dropout(p=0.0, inplace=False)
            )
            (drop_path): DropPath()
            (norm2): LayerNorm((768,), eps=1e-05, elementwise_affine=True)
            (mlp): Mlp(
              (fc1): Linear(in_features=768, out_features=3072, bias=True)
              (act): GELU()
              (drop1): Dropout(p=0.0, inplace=False)
              (fc2): Linear(in_features=3072, out_features=768, bias=True)
              (drop2): Dropout(p=0.0, inplace=False)
            )
          )
        )
        (norm): LayerNorm((768,), eps=1e-05, elementwise_affine=True)
      )
      (decoder): MIMDetDecoder(
        (decoder_embed): Linear(in_features=768, out_features=512, bias=True)
        (conv_feat_proj): Linear(in_features=768, out_features=512, bias=True)
        (decoder_blocks): ModuleList(
          (0): Block(
            (norm1): LayerNorm((512,), eps=1e-05, elementwise_affine=True)
            (attn): Attention(
              (qkv): Linear(in_features=512, out_features=1536, bias=True)
              (attn_drop): Dropout(p=0.0, inplace=False)
              (proj): Linear(in_features=512, out_features=512, bias=True)
              (proj_drop): Dropout(p=0.0, inplace=False)
            )
            (drop_path): Identity()
            (norm2): LayerNorm((512,), eps=1e-05, elementwise_affine=True)
            (mlp): Mlp(
              (fc1): Linear(in_features=512, out_features=2048, bias=True)
              (act): GELU()
              (drop1): Dropout(p=0.0, inplace=False)
              (fc2): Linear(in_features=2048, out_features=512, bias=True)
              (drop2): Dropout(p=0.0, inplace=False)
            )
          )
          (1): Block(
            (norm1): LayerNorm((512,), eps=1e-05, elementwise_affine=True)
            (attn): Attention(
              (qkv): Linear(in_features=512, out_features=1536, bias=True)
              (attn_drop): Dropout(p=0.0, inplace=False)
              (proj): Linear(in_features=512, out_features=512, bias=True)
              (proj_drop): Dropout(p=0.0, inplace=False)
            )
            (drop_path): Identity()
            (norm2): LayerNorm((512,), eps=1e-05, elementwise_affine=True)
            (mlp): Mlp(
              (fc1): Linear(in_features=512, out_features=2048, bias=True)
              (act): GELU()
              (drop1): Dropout(p=0.0, inplace=False)
              (fc2): Linear(in_features=2048, out_features=512, bias=True)
              (drop2): Dropout(p=0.0, inplace=False)
            )
          )
          (2): Block(
            (norm1): LayerNorm((512,), eps=1e-05, elementwise_affine=True)
            (attn): Attention(
              (qkv): Linear(in_features=512, out_features=1536, bias=True)
              (attn_drop): Dropout(p=0.0, inplace=False)
              (proj): Linear(in_features=512, out_features=512, bias=True)
              (proj_drop): Dropout(p=0.0, inplace=False)
            )
            (drop_path): Identity()
            (norm2): LayerNorm((512,), eps=1e-05, elementwise_affine=True)
            (mlp): Mlp(
              (fc1): Linear(in_features=512, out_features=2048, bias=True)
              (act): GELU()
              (drop1): Dropout(p=0.0, inplace=False)
              (fc2): Linear(in_features=2048, out_features=512, bias=True)
              (drop2): Dropout(p=0.0, inplace=False)
            )
          )
          (3): Block(
            (norm1): LayerNorm((512,), eps=1e-05, elementwise_affine=True)
            (attn): Attention(
              (qkv): Linear(in_features=512, out_features=1536, bias=True)
              (attn_drop): Dropout(p=0.0, inplace=False)
              (proj): Linear(in_features=512, out_features=512, bias=True)
              (proj_drop): Dropout(p=0.0, inplace=False)
            )
            (drop_path): Identity()
            (norm2): LayerNorm((512,), eps=1e-05, elementwise_affine=True)
            (mlp): Mlp(
              (fc1): Linear(in_features=512, out_features=2048, bias=True)
              (act): GELU()
              (drop1): Dropout(p=0.0, inplace=False)
              (fc2): Linear(in_features=2048, out_features=512, bias=True)
              (drop2): Dropout(p=0.0, inplace=False)
            )
          )
        )
        (decoder_norm): LayerNorm((512,), eps=1e-05, elementwise_affine=True)
      )
    )
  )
  (proposal_generator): RPN(
    (rpn_head): StandardRPNHead(
      (conv): Sequential(
        (conv0): Conv2d(
          256, 256, kernel_size=(3, 3), stride=(1, 1), padding=(1, 1)
          (activation): ReLU()
        )
        (conv1): Conv2d(
          256, 256, kernel_size=(3, 3), stride=(1, 1), padding=(1, 1)
          (activation): ReLU()
        )
      )
      (objectness_logits): Conv2d(256, 3, kernel_size=(1, 1), stride=(1, 1))
      (anchor_deltas): Conv2d(256, 12, kernel_size=(1, 1), stride=(1, 1))
    )
    (anchor_generator): DefaultAnchorGenerator(
      (cell_anchors): BufferList()
    )
  )
  (roi_heads): StandardROIHeads(
    (box_pooler): ROIPooler(
      (level_poolers): ModuleList(
        (0): ROIAlign(output_size=(7, 7), spatial_scale=0.25, sampling_ratio=0, aligned=True)
        (1): ROIAlign(output_size=(7, 7), spatial_scale=0.125, sampling_ratio=0, aligned=True)
        (2): ROIAlign(output_size=(7, 7), spatial_scale=0.0625, sampling_ratio=0, aligned=True)
        (3): ROIAlign(output_size=(7, 7), spatial_scale=0.03125, sampling_ratio=0, aligned=True)
      )
    )
    (box_head): FastRCNNConvFCHead(
      (conv1): Conv2d(
        256, 256, kernel_size=(3, 3), stride=(1, 1), padding=(1, 1), bias=False
        (norm): NaiveSyncBatchNorm(256, eps=1e-05, momentum=0.1, affine=True, track_running_stats=True)
        (activation): ReLU()
      )
      (conv2): Conv2d(
        256, 256, kernel_size=(3, 3), stride=(1, 1), padding=(1, 1), bias=False
        (norm): NaiveSyncBatchNorm(256, eps=1e-05, momentum=0.1, affine=True, track_running_stats=True)
        (activation): ReLU()
      )
      (conv3): Conv2d(
        256, 256, kernel_size=(3, 3), stride=(1, 1), padding=(1, 1), bias=False
        (norm): NaiveSyncBatchNorm(256, eps=1e-05, momentum=0.1, affine=True, track_running_stats=True)
        (activation): ReLU()
      )
      (conv4): Conv2d(
        256, 256, kernel_size=(3, 3), stride=(1, 1), padding=(1, 1), bias=False
        (norm): NaiveSyncBatchNorm(256, eps=1e-05, momentum=0.1, affine=True, track_running_stats=True)
        (activation): ReLU()
      )
      (flatten): Flatten(start_dim=1, end_dim=-1)
      (fc1): Linear(in_features=12544, out_features=1024, bias=True)
      (fc_relu1): ReLU()
    )
    (box_predictor): FastRCNNOutputLayers(
      (cls_score): Linear(in_features=1024, out_features=1204, bias=True)
      (bbox_pred): Linear(in_features=1024, out_features=4812, bias=True)
    )
    (mask_pooler): ROIPooler(
      (level_poolers): ModuleList(
        (0): ROIAlign(output_size=(14, 14), spatial_scale=0.25, sampling_ratio=0, aligned=True)
        (1): ROIAlign(output_size=(14, 14), spatial_scale=0.125, sampling_ratio=0, aligned=True)
        (2): ROIAlign(output_size=(14, 14), spatial_scale=0.0625, sampling_ratio=0, aligned=True)
        (3): ROIAlign(output_size=(14, 14), spatial_scale=0.03125, sampling_ratio=0, aligned=True)
      )
    )
    (mask_head): MaskRCNNConvUpsampleHead(
      (mask_fcn1): Conv2d(
        256, 256, kernel_size=(3, 3), stride=(1, 1), padding=(1, 1), bias=False
        (norm): NaiveSyncBatchNorm(256, eps=1e-05, momentum=0.1, affine=True, track_running_stats=True)
        (activation): ReLU()
      )
      (mask_fcn2): Conv2d(
        256, 256, kernel_size=(3, 3), stride=(1, 1), padding=(1, 1), bias=False
        (norm): NaiveSyncBatchNorm(256, eps=1e-05, momentum=0.1, affine=True, track_running_stats=True)
        (activation): ReLU()
      )
      (mask_fcn3): Conv2d(
        256, 256, kernel_size=(3, 3), stride=(1, 1), padding=(1, 1), bias=False
        (norm): NaiveSyncBatchNorm(256, eps=1e-05, momentum=0.1, affine=True, track_running_stats=True)
        (activation): ReLU()
      )
      (mask_fcn4): Conv2d(
        256, 256, kernel_size=(3, 3), stride=(1, 1), padding=(1, 1), bias=False
        (norm): NaiveSyncBatchNorm(256, eps=1e-05, momentum=0.1, affine=True, track_running_stats=True)
        (activation): ReLU()
      )
      (deconv): ConvTranspose2d(256, 256, kernel_size=(2, 2), stride=(2, 2))
      (deconv_relu): ReLU()
      (predictor): Conv2d(256, 1203, kernel_size=(1, 1), stride=(1, 1))
    )
  )
)
[07/07 17:11:40] detectron2.data.datasets.lvis INFO: Loading datasets/lvis/lvis_v1_train.json takes 106.44 seconds.
[07/07 17:11:41] detectron2.data.datasets.lvis INFO: Loaded 100170 images in the LVIS format from datasets/lvis/lvis_v1_train.json
[07/07 17:11:51] detectron2.data.build INFO: Removed 782 images with no usable annotations. 99388 images left.
…
